net_params.pkl (torch_old, 58795 bytes, 10 tensors)

conv1.weight f4 [6, 3, 5, 5]
000000 df 3c 9f bd ef 9a 8e 3d 2b a4 2d bd 0c ab 77 3d
       -0.07775282 0.06963145 -0.04239289 0.060465857
000010 32 32 68 3c cd dc 5c bc a0 52 c0 3d 9e f9 45 bd
       0.014172124 -0.013480377 0.093907595 -0.048333757
000020 22 f8 d2 bd 0f 3a c7 bd cf ca ea bb 97 ad 60 3d
       -0.10301234 -0.09727871 -0.00716529 0.05485305
000030 f5 0b b5 bd 2e fd 1a bd 40 18 6a bd a3 ae bb 3d
       -0.08840171 -0.037839107 -0.057152033 0.09164169
000040 7a 13 0f 3d b8 54 c4 3d 4a 0a 90 3d f2 90 19 3d
       0.034930684 0.09586471 0.070332125 0.037491746
000050 77 e6 78 bd 7e db 2b bd ed 54 2b bd a2 05 ae bd
       -0.060766663 -0.04195737 -0.04182904 -0.08497168
000060 1f f1 1f 3c 58 dd 29 3d 50 72 19 3d a9 90 68 bd
       0.009762078 0.041470855 0.037462533 -0.056778584
000070 b9 25 cd 3d 64 7f b5 ba cd 80 87 bd 51 81 32 bd
       0.10016961 -0.001384717 -0.06616364 -0.043580357
000080 66 d8 e1 bd ea 27 17 3d e2 71 57 bc c4 69 c5 3d
       -0.11027603 0.0369033 -0.01314971 0.09639314
000090 a8 44 c9 3d ac 1e c8 bd 23 be cd 3c 69 6a 8b bd
       0.09827548 -0.09771475 0.025115078 -0.068074055
0000a0 95 91 89 3d 55 eb 33 3c c1 b0 eb bc 4c 80 b0 3d
       0.06717221 0.0109814005 -0.028770806 0.08618221
0000b0 35 09 dd 3d fa f6 87 3d 08 51 b5 bd e9 4f b1 bd
       0.10792772 0.06638904 -0.08853346 -0.0865782
0000c0 3a 94 6e 3d 53 5f cf bd d3 20 b6 bd 3c 97 75 3d
       0.05824683 -0.101256035 -0.088929795 0.05995868
0000d0 11 2f dc bd ed 94 b6 bc 9a 67 85 bd 2d 42 b2 3d
       -0.10751165 -0.02228781 -0.06513901 0.08704028
0000e0 48 c9 cd bc 16 72 c1 bd ab 8c 1e bc 0b af bb bd
       -0.025120392 -0.09445588 -0.009677093 -0.09164246
0000f0 3c 63 b3 bd d6 47 b9 bd 58 f7 ed 3d 8d ce c4 3d
       -0.08759162 -0.09046905 0.11619443 0.09609709
000100 9e d5 84 bd e6 e1 90 bd 36 6f d7 3d 4c 3f e5 3d
       -0.06486057 -0.07074337 0.10519259 0.111937135
000110 9e 1b 0e 3d be f1 68 bd 1e ca 75 bd 84 f3 ab bd
       0.034694307 -0.05687117 -0.060007207 -0.08396056
000120 bb a0 b0 3d 84 ae 92 3d 8b 64 8b 3c 27 89 bf 3d
       0.08624407 0.071621925 0.017015716 0.093523316
000130 3a 54 ed 3d 45 f5 ed 3d 7b 26 f2 3d fe e7 6e bd
       0.115883306 0.11619047 0.11823746 -0.058326714
000140 b5 57 6d 3c 1f bf bd 3c f7 2c ce 3d 0e 3f c0 3d
       0.014486243 0.023162423 0.1006717 0.09387027
000150 8e b9 cb 3d b7 41 3d bd fc 23 b7 3d cf 99 06 3d
       0.09947501 -0.04620525 0.0894241 0.032861527
000160 e5 7f fe 3c 0c 54 c5 3d cd 70 90 3d 4f 56 ba 3d
       0.031066844 0.09635171 0.07052765 0.09098493
000170 d0 84 79 3d 33 e4 3e bd 09 ed a2 3d c9 73 9f 3d
       0.060917675 -0.046604346 0.07955367 0.07785756
000180 4c d3 60 bc ac 70 c1 bd 94 13 ce 3d 98 ef 9c 3d
       -0.013722252 -0.094453186 0.10062328 0.076628864
000190 d4 4c 8f bd eb 79 35 3d ad 57 a8 3d ff 0e df 3d
       -0.06997076 0.044305723 0.08219848 0.10891532
0001a0 7d 9e 87 3d 0c b1 a6 3d 90 8d a0 3d f3 17 a4 3d
       0.06622026 0.08139238 0.07839501 0.080123805
0001b0 8d 15 1f 3c e6 17 91 bc dd 47 88 bd 2b 20 9b bd
       0.009709728 -0.017711591 -0.06654332 -0.07574495
0001c0 e0 d0 77 3d 21 2e fa 3d 02 a1 f6 3c 4c ea 9e bd
       0.060501933 0.1221583 0.030106071 -0.07759532
0001d0 59 a3 64 bd f4 63 1b bd fd 7b 69 bd e0 15 a2 3c
       -0.055819843 -0.03793712 -0.05700301 0.019785821
0001e0 b3 a9 9d bd 9f bc 87 bc a2 a3 3a bb 2e 5c 0e bd
       -0.07698383 -0.016569434 -0.002847888 -0.03475588
0001f0 0d a3 cd bc ef 41 cd 3d 18 51 b4 3d 2d fa 21 3d
       -0.025102163 0.100223415 0.0880453 0.039545227
000200 ed eb 0c bc 61 19 6d 3c dc cd f8 bb 28 69 b2 bd
       -0.008601171 0.014471383 -0.0075928997 -0.08711463
000210 00 77 21 bb f1 10 89 3d 77 a1 4a bd e9 8e 8e 3d
       -0.002463758 0.066926844 -0.04947039 0.06960852
000220 6d 36 22 bc d9 be df 3c 31 64 83 3d 1f 7a 01 3e
       -0.009900671 0.027312683 0.06415594 0.12644242
000230 3a c1 27 3d 13 3d cc 3d 1f 6c 91 3d d7 7e a0 bd
       0.04095576 0.099725865 0.071007006 -0.07836693
000240 70 ca 2c 3d 12 36 3c bd 1e ad bf 3d 43 d9 c7 3d
       0.042185247 -0.045950003 0.09359191 0.09758236
000250 ec 96 c7 3d bf e7 f6 bc b9 75 a2 3d 3f a3 53 3b
       0.09745583 -0.030139802 0.0793261 0.0032293347
000260 4f 4f 91 3c 0f e8 9b bc 8b 94 b8 3d 56 9a 9a bc
       0.017738013 -0.019031553 0.09012707 -0.018872421
000270 73 bb 85 3d 14 11 30 bd fe f5 7c 3d 13 ba ca 3d
       0.06529894 -0.042985037 0.061758034 0.09898772
000280 a4 a1 ed bc f8 3b b2 bd 8e c8 d2 bd c3 a4 0d 3d
       -0.02900774 -0.087028444 -0.10292159 0.034580957
000290 0c 75 7a bd 12 08 0c 3b db 28 b5 3d cb c9 0f 3d
       -0.06114678 0.0021367115 0.08845683 0.035104554
0002a0 bc c5 d3 bd dd 9d e5 3d 41 c3 9a 3d fb 99 d4 bc
       -0.10340449 0.11211751 0.07556773 -0.02595233
0002b0 76 aa e1 3d cc 13 2c bd d9 8e f0 3d 3b 04 93 3d
       0.11018841 -0.042011067 0.11745996 0.07178541
0002c0 90 11 d7 3d 1f 65 b9 bd 55 ca dc bb 6e 46 c5 3c
       0.10501397 -0.090524904 -0.006737987 0.024081435
0002d0 93 42 41 3c 5e 6f 0b 3c 1f c0 9b bd 2d 6c 4e bc
       0.011795658 0.008510439 -0.076050036 -0.012599033
0002e0 f4 64 43 bc 0f 76 af 3d 3a a6 7c 3d 11 25 df 3d
       -0.011925925 0.0856744 0.061681964 0.10895742
0002f0 6f 23 5b bd 3a e8 84 bd a1 80 95 3d 91 cc 55 3d
       -0.05350059 -0.06489606 0.07299925 0.052197043
000300 35 19 9d 3d 85 37 73 3d d8 94 5b bb e7 eb be 3d
       0.076708235 0.05937912 -0.0033505466 0.093223386
000310 ec 49 f0 b9 d1 7f 36 3d e0 f1 45 3d 5f c4 8b bd
       -0.00045831443 0.04455549 0.048326373 -0.06824564
000320 5c 1d 4b bd ba 52 bc 3d 5d 1b d1 bc 2f 4e 7c 3d
       -0.049588546 0.09195466 -0.025525743 0.061598
000330 8e 29 4d bd dc 01 b1 3c eb 54 50 3d 30 81 f4 3d
       -0.050088458 0.021607332 0.050862234 0.11938703
000340 4f 73 ed 3d 28 73 7b ba 53 2f f5 3d f1 7f 19 3d
       0.11594259 -0.000959205 0.11971917 0.03747553
000350 f3 a9 fb 3d 2f 13 63 bd 70 56 5e 3d a8 87 b3 bd
       0.122882746 -0.055438217 0.054281652 -0.08766109
000360 e4 f4 c6 3b 71 51 dc bd 69 f4 49 3d 3d 41 a5 3d
       0.0060716737 -0.10757721 0.049305353 0.08069084
000370 85 cc d0 3d e9 4e 85 3c 31 c6 b1 bc b3 50 ce bd
       0.10195259 0.016272979 -0.02170095 -0.10073986
000380 55 8a dd 3d 77 19 5f 3d 54 67 91 bd 30 9f bc bd
       0.108174 0.054467645 -0.070997864 -0.0921005
000390 7d 78 c0 bd d4 ae dc 3d 84 68 7b bd 60 f9 98 bc
       -0.09397981 0.10775533 -0.06137897 -0.018673599
0003a0 5b e5 b9 bc 6c 29 c2 bd 2f 12 03 3d bf 91 82 bd
       -0.022692373 -0.09480557 0.031999763 -0.06375455
0003b0 95 36 36 3d d9 b5 71 bd 1d da 08 bc 01 aa 45 3d
       0.044485647 -0.059011314 -0.0083527835 0.04825783
0003c0 51 e7 96 bd b3 37 d6 bd f9 57 ec 3d b4 bf 22 3d
       -0.07368339 -0.104598425 0.11540217 0.039733604
0003d0 a3 6b 09 3d 70 d4 26 bd 72 3f 9e bc 7f fc 10 bd
       0.033549916 -0.04072994 -0.019317362 -0.03539705
0003e0 77 7a dc bb 01 b8 cc bd b0 fa c8 3d a7 32 c4 bc
       -0.006728466 -0.099960335 0.0981344 -0.023949934
0003f0 3f 8c fb 3c 28 3e cc bd 3e 44 80 bd 73 44 8b 3d
       0.030706523 -0.09972793 -0.06263016 0.06800165

conv1.bias f4 [6]
000000 4b 24 9f 3d cf 26 91 bd 66 df 72 bb 53 00 8e bd
       0.07770594 -0.0708748 -0.0037059425 -0.069336556
000010 41 18 9f bc da bf 4c bd
       -0.019420745 -0.04998765

conv2.weight f4 [12, 6, 5, 5]
000000 af dc 7d bd 19 84 c4 bc 7d ec a5 bd a7 82 78 bd
       -0.06197804 -0.02398877 -0.08101747 -0.060671475
000010 22 09 5d bd 53 99 03 3b 3c 45 24 3c e4 16 f2 bb
       -0.053963788 0.0020080402 0.010026272 -0.0073879827
000020 6c ad 64 bd 44 69 a4 bd 19 0f 28 3d 53 66 9a 3d
       -0.05582945 -0.0802789 0.041030023 0.07539048
000030 b2 92 73 bc a1 5d a1 bd 22 35 4f bd c0 5b 73 bd
       -0.014866518 -0.078791864 -0.05058778 -0.05941367
000040 81 d5 03 bd 25 98 a6 3d 29 7a d8 3c 9d 7a c6 3c
       -0.032186035 0.08134488 0.026425438 0.024228388
000050 00 9a 0f bd ab ef 4b bc 58 9f 46 bd 48 35 0d 3d
       -0.035058975 -0.012447278 -0.048491806 0.03447464
000060 80 ae 90 bd a5 09 70 bd 2e 5f 90 bd c3 7f 43 bd
       -0.07064533 -0.058602948 -0.07049404 -0.047729265
000070 20 4c 99 3d b6 4a b0 3d fc 28 e1 3b 1f 75 76 bd
       0.07485223 0.08608 0.006871341 -0.06017029
000080 34 ba b8 bc 9c f0 6a 3d 68 ce 49 bd 58 4f 0c bd
       -0.022549726 0.05735837 -0.04926911 -0.034255356
000090 be f9 93 3c b9 f4 57 bd 42 c4 a0 3c ea 58 17 3d
       0.018063422 -0.05272362 0.019624833 0.03695003
0000a0 59 8c c0 bc be ad 4b bd 57 f7 5e 3d a1 ff de bc
       -0.023504423 -0.04972624 0.0544351 -0.027221503
0000b0 34 04 64 3d 6d ca 20 3d 2a c1 2c 3d b3 19 9b 3c
       0.05566807 0.03925555 0.042176403 0.018933153
0000c0 af 47 89 3b 4a 36 8a bd 92 48 e9 3c 10 b5 d5 bc
       0.0041894536 -0.06748636 0.028476987 -0.026087314
0000d0 3d c3 ab ba 6c 3b 77 bc 16 66 8a bd dc d8 88 3d
       -0.001310445 -0.015089851 -0.067577526 0.06681988
0000e0 d3 db 98 bd 5e 93 8b bd e1 38 d1 3c de a4 aa 3d
       -0.07463803 -0.068152174 0.025539817 0.08332227
0000f0 58 28 81 bd e2 14 cc bb 79 be 1f 3d 32 69 bd 3a
       -0.06306523 -0.0062280754 0.03900001 0.0014450906
000100 75 b8 a9 bc 11 b7 8e bd 89 4a 8c 3d ac e9 aa 3d
       -0.020717839 -0.06968511 0.06850154 0.083453506
000110 62 9b 11 3d e2 7e 9a bc 20 85 69 bd 8a 43 0a 3d
       0.035548575 -0.01885933 -0.057011724 0.033755817
000120 40 2d 6b 3c 47 b0 c0 bc 9d cf a4 3b ee 89 63 3d
       0.01435405 -0.023521556 0.0050296322 0.055551462
000130 8a 87 54 bd 04 36 fa bc a0 cb ac 3c e4 65 20 bd
       -0.051887073 -0.030543335 0.02109319 -0.03915967
000140 ba 22 84 3c 43 54 9a bd d6 d2 2a 3d 3e 38 87 bd
       0.01612984 -0.07535603 0.041704975 -0.06602524
000150 aa a1 2b 3d 2f b2 ff 3c 38 ef dd 3c 38 f8 32 bd
       0.04190222 0.031212894 0.027091607 -0.04369375
000160 28 cf a7 bc de a4 1c 3c 34 40 38 bd 68 bf 37 3d
       -0.020484522 0.009560792 -0.044983104 0.044860274
000170 71 64 79 bd a6 dd 1b 3d 1f 64 6b bc aa ce 6a bd
       -0.060886804 0.038053177 -0.014367132 -0.057325996
000180 ac eb 70 bd 2e 17 93 bd 48 46 51 bd a0 61 17 3d
       -0.058818504 -0.071821555 -0.051092416 0.036958337
000190 a5 6f 34 3d 77 2a a7 3d da 9a c9 bb 9b 86 86 3d
       0.044051785 0.081623964 -0.006152493 0.06568643
0001a0 0d 58 dd bc 8d 98 8e bd f0 f6 6c bd db 5e 9d 3d
       -0.027019525 -0.069626905 -0.057852685 0.07684108
0001b0 e8 46 70 bc 9b 91 3e 3d f2 31 72 3d 02 16 8f 3d
       -0.014665343 0.04652558 0.059129663 0.069866195
0001c0 e6 1b 51 3c 9a 3f a2 bd 45 d2 99 3d 02 5e 83 3d
       0.012762999 -0.07922287 0.07510809 0.06414415
0001d0 3e f1 65 bd 9c b3 2c 3b 2e a3 9d bd 79 5a 10 bc
       -0.05613827 0.0026352173 -0.0769714 -0.008810633
0001e0 ec f9 5a bd ae 4d 33 bc e1 e0 42 3d 4d 25 50 bd
       -0.053461 -0.010943813 0.047577742 -0.050816823
0001f0 fa e1 97 bb 98 69 28 3d 8c 41 d7 3a d6 a4 f6 bb
       -0.004635093 0.041116327 0.0016422733 -0.007526974
000200 04 63 a3 bc 59 3b 7e 3d f4 4b 7e 3d e9 a0 18 3d
       -0.019944675 0.062068317 0.062084153 0.03726283
000210 63 92 9a bc 5c 25 4e bd 85 e1 1d 3d 0a ea 53 bd
       -0.01886863 -0.050328597 0.03854515 -0.05173687
000220 d1 5c e2 3c d9 c4 ad 3b 12 cd 3c bd ea 1d 6d bd
       0.027632149 0.005303007 -0.046094008 -0.057889856
000230 fb 65 0a 3d 88 d5 50 bd 36 92 8d 3d b6 ed d2 bb
       0.033788662 -0.05098489 0.06912653 -0.0064370288
000240 51 ff 4e 3d c4 39 3f bd e1 44 5a 3d 92 de a4 3d
       0.050536457 -0.04668595 0.053288344 0.080502644
000250 28 bc 6e bd 13 0f 8b bd 9e d2 7c 3d c5 f0 07 3d
       -0.05828491 -0.067899846 0.061724298 0.0331886
000260 54 3c 5a bd e0 e7 3b 3d 9d 10 cd 3a 76 89 17 3d
       -0.05328019 0.04587543 0.001564521 0.036996327
000270 88 82 3e 3d 34 bd 93 bd c7 d6 97 bd 65 77 eb bc
       0.046511203 -0.07213822 -0.074140124 -0.028743455
000280 d5 b1 80 3d cf 1c 86 3c a3 07 90 3d 1f 48 9c 3c
       0.06283919 0.016371159 0.070327066 0.019077359
000290 41 a8 ce bc de a1 92 3d f3 ce 8b bc c9 27 89 3b
       -0.025226714 0.0715978 -0.017066455 0.004185651
0002a0 00 b8 14 bd 76 65 41 bd 64 88 4f bd e9 e7 82 bd
       -0.03630829 -0.0472159 -0.05066718 -0.063918896
0002b0 6e 9a fc 3c 45 11 7d bd ba 12 9c 3d 73 d3 95 bd
       0.030835357 -0.061784048 0.07620759 -0.07315721
0002c0 4c a5 17 3d 58 36 a0 3d 25 03 35 bc fe e3 1f bd
       0.037022874 0.07822865 -0.011048113 -0.03903579
0002d0 54 a0 55 bd 4b b4 66 3d fa 02 2f 3d 27 d4 12 3d
       -0.052154854 0.056324285 0.042727448 0.035846855
0002e0 57 39 c4 3c 1e ad 2a bd ea 54 09 3d 3c 92 de 39
       0.023953123 -0.041669004 0.033528246 0.00042452093
0002f0 6c f2 63 3d a3 66 9e 3d f4 d5 33 3c 5d 9d 95 3d
       0.055651113 0.0773442 0.010976303 0.07305405
000300 6d aa 8d bd ca d9 32 bd b6 2a 80 bd 16 43 2a bd
       -0.06917272 -0.04366473 -0.062581465 -0.041567884
000310 8d 43 a9 bc 46 ad 72 bd dc 3b 1b 3d ee 0c 6b bd
       -0.020662094 -0.059247278 0.037898883 -0.057385378
000320 ba 50 6a bd cf c9 ad bc 36 da 4f bd 71 76 09 bd
       -0.057205893 -0.021214394 -0.05074521 -0.03356022
000330 c9 e0 c7 bb 00 71 c9 bc 44 c2 f2 bc 38 3f 29 bd
       -0.0060997945 -0.024590015 -0.029633649 -0.041320056
000340 02 b6 6a 39 09 77 41 3d 86 9b 5c 3d 66 8a 84 ba
       0.00022383782 0.04723266 0.053859256 -0.0010112047
000350 f1 4e 5b bd 52 12 c7 3b 21 33 05 bd 32 2e ee bc
       -0.05354208 0.006075182 -0.032519463 -0.029074762
000360 7b b5 e0 38 b7 4c a6 bc 4e e6 dc bc d5 67 0d bd
       0.00010714956 -0.020300252 -0.026965287 -0.03452285
000370 46 54 8f bd 35 6d 0a bc 3e 97 1f 3d 36 d4 51 3d
       -0.06998496 -0.008448889 0.038962595 0.05122777
000380 c3 cd 91 bd 22 a1 a1 bc f8 39 29 bc 40 eb d0 bb
       -0.07119324 -0.019730154 -0.010328762 -0.0063757002
000390 cc f5 f7 3c c4 c1 37 3d 5e 52 1e 3d f6 5e 0a 3d
       0.030268572 0.044862524 0.03865277 0.033781968
0003a0 42 56 82 3d 6c ce 55 bd 30 81 e5 bb c4 11 c3 3c
       0.063641086 -0.052198812 -0.0070039257 0.023812182
0003b0 54 ea 8b bd b0 cd 21 3d 48 76 7a bc a0 e1 f0 3c
       -0.06831804 0.0395028 -0.0152869895 0.029404461
0003c0 9a cf 57 bd 9e aa a1 bd 87 17 a1 bd d2 92 a4 3d
       -0.05268822 -0.07893871 -0.078658156 0.08035816
0003d0 ac d0 00 3d 80 49 c7 3b 24 8c 91 3d 90 fc 65 3c
       0.031449005 0.00608176 0.07106808 0.014037266
0003e0 0b 4d a2 bd bc 70 47 3d 7b 43 0a 3c 1c 31 2b 3c
       -0.07924851 0.048691496 0.00843894 0.01044872
0003f0 f2 d8 e9 bc 0d 6d 71 bd 2b a3 ba bc 10 0a 80 bd
       -0.02854583 -0.05894189 -0.022782883 -0.06251919

conv2.bias f4 [12]
000000 11 22 c5 3d ae 12 2a 3d 5f 8a 80 3d 68 5e 8a 3c
       0.09625638 0.04152172 0.06276392 0.01689072
000010 c1 46 31 3d 68 16 1a 3d ef 06 3b 3d c5 7c d3 bd
       0.043280367 0.037619025 0.04566091 -0.10326532
000020 fc 10 31 3d 55 7b b6 3d b3 cb 9d bd 40 f4 81 bd
       0.04322909 0.089102425 -0.07704868 -0.06345415

fc1.weight f4 [80, 108]
000000 d6 7f 5f 3d 68 5b 96 bc ec 48 fb bc 13 26 0e bd
       0.054565273 -0.018354133 -0.03067442 -0.03470428
000010 65 14 9f 3d 80 0c cb bb 8c e2 4b bd f5 f0 b6 3d
       0.07767562 -0.0061965585 -0.0497766 0.08932678
000020 50 03 9b 3b 3e 3c 16 3d be 7d 46 bd 30 5a c9 3b
       0.0047306195 0.036678545 -0.04845976 0.0061447844
000030 46 79 39 3d 56 32 1a 3d fe 4f 3d 3d 02 2a 25 bd
       0.04528167 0.03764566 0.046218865 -0.040323265
000040 50 8e 8e 3c 2e da 8d bd 88 4f eb 3c 5c 58 b9 bd
       0.017401844 -0.0692638 0.028724447 -0.09050056
000050 f8 42 de bc 90 22 f6 3b 76 35 3d bd 6a 35 63 3d
       -0.027131543 0.0075114444 -0.046193562 0.05547086
000060 60 e4 04 3b bd 88 a1 bd 5e d1 3b 3d bb 83 b6 3d
       0.0020277724 -0.07887409 0.045853965 0.08911844
000070 38 66 c9 bc cd 7e 92 3d a7 98 8f 3d 70 c3 8c bc
       -0.024584875 0.071530916 0.07011538 -0.017183036
000080 dc a8 34 bd 1c 1d d4 bc b0 bc ab bc bc 8e 64 bd
       -0.04410635 -0.025892787 -0.020963997 -0.055800185
000090 2a 37 a1 bd 0a be 74 bd 0c 97 95 3c 5c da 3f bd
       -0.0787185 -0.059751548 0.018260501 -0.046839103
0000a0 c0 9f bc bd ae 31 0d 3d 7d d4 b5 3d 7f cb 8d bd
       -0.092101574 0.034471206 0.088784195 -0.069235794
0000b0 68 7d 5f bc 89 c6 8e 3d 1a c7 72 3d 08 f1 38 bd
       -0.013640739 0.06971461 0.05927191 -0.04515174
0000c0 d2 88 71 3d fa 0b 01 3d dc 3d d5 3c 68 ba ae bc
       0.058968373 0.031505562 0.026030473 -0.02132912
0000d0 9d dd 29 bd 91 4f 53 bd 96 dd 5a 3d 88 5a 64 bd
       -0.041471113 -0.051589552 0.053433977 -0.0557504
0000e0 10 e5 5f 3c 20 19 93 bd a6 56 2e 3d 5b 7d c3 3d
       0.013665453 -0.071825266 0.042563103 0.09545394
0000f0 b9 71 bf 3d d8 23 a5 3c e0 1b eb 3b 5d 03 9d 3d
       0.09347863 0.020158693 0.007174954 0.07666657
000100 f2 25 60 3d 6a 8f 44 3d 6a b8 a5 bd da b6 8c bd
       0.054723687 0.047988333 -0.08091815 -0.06870814
000110 b7 4d a1 3d 08 79 01 bd 9f 1b a5 bd fb bf a8 3d
       0.07876151 -0.031609565 -0.08061909 0.08239742
000120 18 a4 30 bc c8 4c a1 bd 15 40 b6 3d 33 c3 c2 bd
       -0.0107813105 -0.07875973 0.088989414 -0.095098875
000130 bd 64 aa 3d 1f d4 2e bd 83 ad a0 3d 8b 7d 99 3d
       0.083199956 -0.042682763 0.07845595 0.074946485
000140 82 00 33 bd fd 01 93 bd c0 98 05 3c 27 7b 8a 3d
       -0.043701656 -0.071781136 0.008154094 0.06761771
000150 8e ef 39 3d f8 88 71 3c e0 e4 96 bc c0 46 b7 bb
       0.045394473 0.014742129 -0.018419683 -0.005593151
000160 19 07 5c bd 4c 92 f1 3c 5c a7 b3 bc 3c 95 a7 bc
       -0.053717706 0.029488705 -0.02193039 -0.020456903
000170 83 49 94 3d 74 f2 8b bc 20 16 b6 3b a4 31 7c bd
       0.07240584 -0.017083384 0.0055568367 -0.06157078
000180 4d df 87 3d bc 89 95 bc 52 5c 71 3d 10 19 64 bc
       0.06634388 -0.018254153 0.058925934 -0.013921991
000190 b1 b3 93 3d c4 8a a6 bc c8 83 a8 bc cf 28 1d bd
       0.07212008 -0.02032984 -0.02057065 -0.038368996
0001a0 b8 c3 c1 3c 80 e7 a6 3c ee 69 16 3d 47 b7 b1 3d
       0.023652896 0.02037406 0.036722116 0.086775355
0001b0 5f ce 63 bd 19 ef 81 bd e8 ce de bc 7c 40 88 bd
       -0.055616733 -0.063444324 -0.02719827 -0.066529244
0001c0 be 41 5d 3a 27 8b c1 3a 03 16 2a bc 0e 43 20 bd
       0.00084402773 0.0014766202 -0.010381225 -0.03912645
0001d0 d4 8d a0 3d bf 13 50 bb 90 91 0f bd f6 d1 d4 39
       0.078395516 -0.003175005 -0.03505093 0.00040592224
0001e0 60 f5 85 bb 99 b9 9e 3d 00 95 e3 bc a0 01 d9 3c
       -0.004088089 0.07750244 -0.02778101 0.026490033
0001f0 a4 29 ae bd ec 54 aa bd f7 8d b6 3d 7b a7 4b 3d
       -0.08504036 -0.08316979 0.089137964 0.04972027
000200 51 31 9c 3d 05 8b fd 3c 1c f3 21 bc 98 4c ab bd
       0.07626594 0.030950079 -0.009884622 -0.083642185
000210 e4 cf 8f bd 01 c1 7f 3d 29 86 0a 3d 40 91 5d bd
       -0.07022074 0.062439922 0.03381935 -0.0540936
000220 8a b7 c3 bd c2 ac 5a bd 76 ab 11 3c d3 86 32 bb
       -0.09556492 -0.05338741 0.008890977 -0.0027241006
000230 32 13 0e 3d 2d 50 4f 3d b1 58 a2 bd 0b 08 6d bd
       0.034686275 0.05061357 -0.07927073 -0.057869
000240 2c e5 5c 3c b3 ff bc bd bd c4 c1 bd ac be a5 3a
       0.013482373 -0.09228458 -0.09461353 0.0012645326
000250 8f 6e 34 3d ca a9 6e 3c a6 86 01 3d 47 5c 4e 3d
       0.04405075 0.014566848 0.03162255 0.05038097
000260 bf 9a 9c 3d 45 90 e0 bc de 44 0c 3d 52 36 66 3a
       0.07646703 -0.027412543 0.034245364 0.0008781898
000270 8e 5b d5 39 a7 c0 81 3c 24 4f 48 bd ec 1a af 3d
       0.0004069474 0.015838934 -0.0489036 0.08550057
000280 50 d2 88 bd 44 91 aa 3c e5 20 86 bd e9 60 2e 3d
       -0.06680739 0.020821221 -0.06549243 0.04257289
000290 0e c5 2b bd 2e e7 7c 3d e7 81 ae bd 3a fd 86 3d
       -0.041935973 0.061743908 -0.08520871 0.06591268
0002a0 8d bc 2b 3d fe 87 46 3d 99 b7 5a bd 64 07 a4 3b
       0.041927863 0.048469536 -0.05339775 0.005005764
0002b0 bd de 94 3c ba 8c 97 bd e6 21 3b 3d 28 97 3f 3d
       0.018172616 -0.07399888 0.045686625 0.046775013
0002c0 96 bf de 3c 46 3c a7 bd 45 df 26 bd 0f 6d 4c bd
       0.027190965 -0.08165793 -0.04074027 -0.049908694
0002d0 2c 52 c1 bd 8b 2c a7 bd 0f 59 a0 3c 55 91 3f bc
       -0.09439501 -0.08162793 0.019573716 -0.011692365
0002e0 5f 18 f0 39 fe fa a7 3c 24 68 40 bc 49 20 23 bd
       0.00045794525 0.020505425 -0.011743579 -0.03982571
0002f0 24 16 53 bd a8 db be bd f0 f4 9d bd e6 f7 26 3d
       -0.051534787 -0.0931924 -0.07712734 0.040763758
000300 00 2f ba 3d a2 41 3a 3c 9c 79 6f 3d 7b e7 be bd
       0.09090996 0.011368187 0.058465585 -0.09321495
000310 d5 c9 df 3b f0 8f 40 3d 52 4d 13 bd b2 64 0a 3d
       0.00682948 0.04701227 -0.03596241 0.033787437
000320 c0 3c 2f 3b 5e a5 14 3d 78 1e c4 bc 40 d7 f5 bc
       0.002673909 0.03629052 -0.02394031 -0.030009866
000330 ad 70 9b bd 35 e7 3c bd 80 80 9d 3a f3 87 1c bc
       -0.075898506 -0.046118934 0.0012016445 -0.009553897
000340 0e f2 a4 bd 0e 89 29 bd 8d c6 a1 bd f6 41 42 bd
       -0.08053981 -0.04139047 -0.07899199 -0.047426187
000350 5f a3 7e 3d ea 69 54 3d 00 51 17 3d 98 e8 27 3d
       0.06216752 0.05185882 0.036942482 0.040993303
000360 98 40 8e 3d 9d 73 07 3d c6 3f 72 3d 4e c3 c7 3c
       0.06945914 0.03306924 0.05914285 0.02438512
000370 0d d7 a6 bc 97 ff a3 bd 4e 90 49 bd c6 a7 61 bc
       -0.020366216 -0.08007734 -0.049209885 -0.01377291
000380 4c e8 fe 3c 8d 44 c4 bd 0f 17 27 bd 80 87 77 3d
       0.031116627 -0.095833875 -0.040793475 0.060431957
000390 c0 be 7a 3d 9b ab 36 3d 23 6f 86 3d 57 10 61 bd
       0.06121707 0.04459725 0.065641664 -0.054947224
0003a0 e0 30 e9 bc d1 e9 3e 3d d5 52 55 3c f1 2c 96 3c
       -0.028465688 0.046609703 0.013020237 0.018331977
0003b0 c2 b0 b2 3d a8 e1 c2 ba d7 3d a4 bd 1b 34 e3 3c
       0.0872512 -0.0014868276 -0.080196075 0.027734807
0003c0 54 4f c4 3d 7b 3b 1d bd 76 3a 16 3d e3 4d 18 bc
       0.09585443 -0.038386803 0.036676846 -0.009295913
0003d0 21 f1 97 3d 24 37 a9 bd 6f 18 b2 bc 0b 4d 06 3c
       0.074190386 -0.0826247 -0.021740166 0.008197079
0003e0 68 30 a9 bd 5f 93 65 bd 3f 50 43 3b cb 65 fd bc
       -0.08261186 -0.056048747 0.002980247 -0.030932328
0003f0 e8 18 0b 3d 4d af 68 bd fe d3 8f bc a7 57 93 ba
       0.0339593 -0.056807805 -0.01755714 -0.0011241332

fc1.bias f4 [80]
000000 52 2a 0e bd 16 9c af bc c0 ec c4 3c e8 d8 c0 bd
       -0.03470833 -0.021436732 0.024038672 -0.094163716
000010 3c 21 60 bc e7 c9 50 bd c3 ec a8 3c 4f 5d ff 3c
       -0.013679799 -0.0509738 0.02062071 0.031172423
000020 17 65 a7 3d 0e d0 fe 3c 89 bf 5c 3c 7c a5 8c 3d
       0.08173578 0.031105068 0.0134734 0.06867501
000030 00 77 c8 bc 34 f3 80 3d d6 15 20 3d cf 4c 0b bd
       -0.024470806 0.06296387 0.039083324 -0.034008797
000040 2a b9 83 3d 11 fb 1a bd 59 19 9f bd 53 dd 6b bd
       0.064318016 -0.03783709 -0.077685066 -0.057584118
000050 c6 df b8 bd ac 3e 94 bc e4 4d 8e 3d 72 90 4f bd
       -0.090270564 -0.01809629 0.0694845 -0.050674863
000060 ba 0f 55 bc 46 ef 6c 3d 09 2f 33 3d e6 9a ab bd
       -0.013004238 0.057845376 0.043746028 -0.08379154
000070 cc 7f 14 3d 0e e2 86 bd a8 e7 cd 3d 92 a9 b2 bd
       0.03625469 -0.06586085 0.100539505 -0.08723749
000080 dd 48 94 3c 43 16 0b bd 39 90 21 bd ce d4 03 3c
       0.01810115 -0.033956777 -0.039444182 0.008046342
000090 6b 2a aa bd 55 09 11 3d df 90 ac bd a9 7a 8f bd
       -0.08308872 0.03540929 -0.084260695 -0.070058174
0000a0 12 12 6a bd 6a 5f 4b bd 23 dc 13 bd 6e cd 65 bd
       -0.05714614 -0.04965154 -0.03609861 -0.056104116
0000b0 bf d0 b3 3d ea 3b 8c 3d 7a 14 2c 3d 1c 8f a7 bc
       0.087800495 0.06847365 0.042011715 -0.020453982
0000c0 b0 5b bc bd 9e 48 60 bd 07 d2 2e 3d 38 16 06 bd
       -0.091971755 -0.054756753 0.042680766 -0.032736033
0000d0 4f 0d 17 3b e3 74 36 bd 10 4c 86 3d 36 7c 25 3d
       0.0023048704 -0.044545066 0.065574765 0.04040166
0000e0 7b 1f 96 bc 9a 14 4d 3d 7c 3d 9f bd d7 4a 36 3c
       -0.018325558 0.050068475 -0.07775399 0.011126242
0000f0 66 9d e4 3c cf dc 24 3d 5c 42 3f bd 92 7b a3 bd
       0.027907085 0.040249642 -0.046694145 -0.079825535
000100 fb 7f bc 3d 97 46 a3 bd 0c 1a 48 bd ae e4 a8 bd
       0.09204098 -0.07972448 -0.048852965 -0.08246742
000110 0f 1a c9 3d 61 57 c5 3d 6f 3e 79 bd 13 45 3a bd
       0.098194234 0.09635807 -0.060850557 -0.04547603
000120 4c 6d eb 3b 2a 99 23 3c a9 50 37 3d 7b 15 98 3d
       0.00718466 0.009985248 0.044754658 0.07425972
000130 dc b6 48 3d dd 7b cc 3d 24 92 87 bc f9 22 84 bd
       0.049002513 0.099845625 -0.016549177 -0.06451983

fc2.weight f4 [40, 80]
000000 60 38 65 bd e0 fb b4 3b 79 1e 30 3d b6 e4 e2 3c
       -0.055961967 0.00552319 0.04299781 0.027696948
000010 5e 6d 94 3d 60 bc 22 bd f7 af 72 bd 29 e8 90 3d
       0.07247423 -0.03973043 -0.059249844 0.07075531
000020 a0 4b f0 3c ba 76 e2 3d 73 08 93 bd c3 be 17 bc
       0.029332936 0.110578015 -0.07179346 -0.00926179
000030 d8 16 45 3d 50 cb d8 bd 2f e7 4b 3d 28 7d de 3c
       0.04811749 -0.10585654 0.04978102 0.027159289
000040 7e 00 26 bd 43 7b 58 3d 20 66 85 bc ee 5e 8d bd
       -0.040527813 0.052851927 -0.016284049 -0.06902872
000050 0b e7 79 3c d8 86 87 3c 9f 6e 14 3d 36 2c 22 bd
       0.015252839 0.01654379 0.03623831 -0.039592944
000060 44 e7 65 bc 2d 87 5c 3d 01 de 7b 3c cc 9d e3 bd
       -0.014032189 0.05383985 0.015372754 -0.11114082
000070 a4 4c b7 bd b4 63 b5 bc 61 c4 9b 3d a0 7f 32 bd
       -0.08950165 -0.022142269 0.07605816 -0.043578744
000080 ae 9f 7f 3d 80 18 bb 3a 2d c0 9a bd 91 90 f8 3c
       0.06240814 0.0014274269 -0.07556186 0.030342372
000090 ca 8d b8 bd 5d 4f b9 3c 28 e0 be 3c 2d cd 9c 3d
       -0.09011419 0.022620851 0.023300245 0.07656322
0000a0 cb ee ab 3d 6a 16 1e bd 64 fc e2 bc 7a 81 88 3d
       0.083951555 -0.038595594 -0.02770824 0.06665321
0000b0 17 08 47 3d fa c8 80 3c c8 4d c5 3b 1c f0 09 bd
       0.0485917 0.015720833 0.006021235 -0.03367625
0000c0 3b 2f d1 bd 6d f9 bb bc 2e c0 d3 bd 40 22 cb 3d
       -0.102140866 -0.022946084 -0.1033939 0.09918642
0000d0 ba 67 cd bd de 52 ee bc e1 e5 17 bc 55 e6 b4 bd
       -0.1002955 -0.029092249 -0.009271116 -0.08832995
0000e0 f8 56 a9 3d 92 8e 97 3d 58 f6 28 bd 9c d6 b6 bc
       0.08268541 0.0740024 -0.041250557 -0.02231913
0000f0 1f 02 9c 3c 87 34 79 bd b8 2b 55 3d 0e 5a b6 bd
       0.01904398 -0.06084111 0.052043647 -0.08903895
000100 d6 60 28 bd 8c 41 10 3d 62 21 91 bc 33 42 6b bd
       -0.041107975 0.03521876 -0.017716113 -0.05743618
000110 97 58 a4 bd 8e ef c9 bd a6 20 15 3c fb b8 15 3d
       -0.0802471 -0.098601446 0.009102022 0.036553364
000120 97 c7 96 bd 61 39 81 3d a6 93 db 3d 41 e3 ad 3c
       -0.073622875 0.06309772 0.10721521 0.021226527
000130 72 bb c1 3d 9a f6 1f 3c c8 c5 cd 3d 34 49 a0 3c
       0.094595805 0.009763384 0.100474894 0.019566156
000140 08 d2 ed bc a7 68 38 3d ff 88 a0 3d bb ce 0a 3d
       -0.029030815 0.04502168 0.0783863 0.03388856
000150 65 02 a6 3d 89 1c 82 3c 2a 79 b9 bd b5 2a c1 3d
       0.081059255 0.015882747 -0.09056313 0.09431974
000160 0b 47 45 bd cf fd 92 bd 28 94 5b bc 5c 84 0a 3d
       -0.048163455 -0.071773164 -0.013402022 0.033817634
000170 ba 80 e0 bd 2d 75 c1 bd 7d 64 5e 3d 22 01 a2 3d
       -0.10962053 -0.09446178 0.05429505 0.07910372
000180 4a 3d 7b bd 4c c3 b6 bc 3d f0 ab 3c f8 30 0f 3c
       -0.061337747 -0.022309922 0.020988578 0.008739702
000190 9d 72 90 3c 2e 93 42 bd 68 67 01 3d 92 77 a8 3d
       0.017632777 -0.047503643 0.031592757 0.08225931
0001a0 b1 33 2b 3c 71 70 09 bd f9 48 ab 3d 0b b5 99 3d
       0.010449336 -0.033554498 0.08363528 0.07505234
0001b0 00 c9 47 3d ec cf 87 bc c5 5b ed 3b 7b c2 6b bd
       0.048775673 -0.016578637 0.007243606 -0.057558518
0001c0 d1 3d 8c bd 24 d0 9a bd eb 85 e3 3d da a1 89 bd
       -0.06847728 -0.07559231 0.11109527 -0.06720324
0001d0 a0 9d a0 bb 5e d9 c1 3c 30 7e 2a 3c ad 19 cc 3d
       -0.004901603 0.023663219 0.010406062 0.09965835
0001e0 ee 51 d0 3d e8 3a 65 bd 56 d2 18 bc 40 8e b9 bc
       0.10171877 -0.05596438 -0.009327492 -0.022650838
0001f0 df c3 b7 bd 8d 12 6f bd b6 6d 26 bd be f0 cc bd
       -0.08972906 -0.0583673 -0.040631972 -0.100068554
000200 95 a1 79 3d 9b 4e 7d bc 0d 09 d9 3d 3b c6 e0 bd
       0.060945112 -0.015460636 0.105974294 -0.109753095
000210 19 0d 4d 3d 7f 37 3d 3d 98 fe 8b bd 78 79 99 3b
       0.05006132 0.046195503 -0.06835669 0.0046836697
000220 6b 30 c7 bd f0 49 41 bd 98 6c 94 3c 67 dd 23 3c
       -0.09726032 -0.047189653 0.018118188 0.010001517
000230 1b 0d 85 3d 00 68 df 3c b4 e2 4a bd d1 4a 46 bc
       0.0649664 0.02727127 -0.049532607 -0.012102799
000240 47 a0 ce 3c 31 f4 ba 3c e7 2c 9b bd fc 40 41 3d
       0.02522291 0.022821518 -0.07576924 0.047181115
000250 57 62 c9 3a 3b 35 98 3d 62 13 a6 3d c0 3f 88 bd
       0.001536439 0.07432028 0.08109166 -0.06652784
000260 d6 cd 28 bd af e0 1b bd fb 07 bb bd a4 6d 83 3d
       -0.041211925 -0.03805607 -0.091323815 0.06417397
000270 54 25 c7 bd 5b dd e9 bc 4c 4b 5e 3d cc 60 d5 3d
       -0.09723917 -0.028547933 0.054271027 0.10418853
000280 b8 f7 b1 bd 33 17 ac 3d 59 08 f4 b8 ce cb 46 3c
       -0.08689827 0.084028624 -0.000116363815 0.012133552
000290 18 0e f4 bc da 8d c0 3d 8c b3 9c 3d ec c3 aa bd
       -0.029791877 0.09402056 0.07651433 -0.083381504
0002a0 5b 00 a8 bd d5 aa e4 bd f8 cb 4c 3d 03 7c 65 3d
       -0.08203193 -0.11165396 0.049999207 0.05602647
0002b0 bc 4c 9e bd dd 9a 8e 3b 53 3b da 3d 62 b0 0c 3c
       -0.0772948 0.0043519572 0.106558464 0.008586975
0002c0 1f c1 1e 3b 20 ec 95 bd f0 30 c0 3d 44 64 de bd
       0.0024223996 -0.07320428 0.09384334 -0.10858968
0002d0 3e 50 da 3c dc 26 c4 3d 46 14 ba bd 18 21 a6 bc
       0.02664959 0.09577724 -0.09085898 -0.020279452
0002e0 b5 65 e0 bd d7 d4 c0 bd 0d 3b b5 3c e2 5d 39 ba
       -0.10956899 -0.09415596 0.022122884 -0.00070711796
0002f0 4e 56 a0 3d f0 09 ae bc b1 8e cc 3d ac 74 89 bc
       0.07828961 -0.021244973 0.09988154 -0.016779266
000300 eb a1 b6 bd 38 fc de 3d a0 c5 8e bc a7 59 7e ba
       -0.08917602 0.10887951 -0.01742822 -0.00097026903
000310 3e 4d cb 3d ce 68 d3 3d 64 ac 19 3d 12 9b a5 3c
       0.09926842 0.10322724 0.03751792 0.020215545
000320 e2 88 88 bd 4c be 5b 3d d4 3b d6 3d 1a e8 64 bd
       -0.06666733 0.053648278 0.1046063 -0.05588541
000330 c0 f3 87 3b e3 a3 a5 bb 4e 2f b3 3d 14 48 58 3d
       0.0041489303 -0.005054937 0.08749257 0.052803114
000340 d7 fe b2 3d f2 e2 b1 3c f4 16 b7 3b 1a 37 97 3d
       0.08740013 0.021714661 0.005587453 0.07383557
000350 0a 08 43 bd de 09 5f bd 4b c2 ac bc 74 1e 1f 3d
       -0.04761509 -0.05445277 -0.02108874 0.0388474
000360 6e f7 a8 3c f0 8f 85 3c 40 34 50 3d 25 25 54 3d
       0.020625796 0.016303986 0.05083108 0.051793236
000370 d3 2d c3 3b e6 b1 b8 3d 38 30 ae bc e4 d0 90 bd
       0.0059563904 0.090183064 -0.021263227 -0.07071093
000380 80 0b 15 bd ce fc c4 bd b8 a2 1b 3c cc 8f c2 bc
       -0.03638792 -0.09618531 0.009499244 -0.023750208
000390 59 72 70 bd 58 ec dc 3d 4d f8 32 3d 1f 94 3e 3c
       -0.0587028 0.107872665 0.04369383 0.0116319945
0003a0 a6 03 e2 bb 66 75 7a 3d 30 96 8c 3d c1 38 9c 3c
       -0.0068974076 0.061147116 0.068645835 0.019070031
0003b0 3c 56 b6 bd 19 cd 8d bc c4 2f f7 bc f0 5d 7c bd
       -0.08903167 -0.017309712 -0.030174144 -0.061613023
0003c0 59 aa c4 bd 8b 28 78 bd 2f 11 be bd 8f 99 65 3d
       -0.09602804 -0.06058554 -0.09280621 0.056054648
0003d0 38 60 e2 3d 5e 08 b8 3d 62 ac a9 bd 78 c7 23 bd
       0.110535085 0.08985971 -0.082848325 -0.03998515
0003e0 5e 8d a9 bd 10 17 33 bd 0f 78 71 bd 40 d6 c2 bb
       -0.08278917 -0.043723166 -0.058952387 -0.0059459507
0003f0 54 5d d4 bc 5f d0 60 3b c6 70 1b 3d 29 f2 bf bd
       -0.025923409 0.0034303886 0.037949346 -0.0937236

fc2.bias f4 [40]
000000 ca 3f 15 3d 2a e3 9c bd 85 d8 79 bd e8 e5 03 3d
       0.036437787 -0.076605156 -0.060997505 0.032201678
000010 ca 6a 42 3d fc 55 fa bc 19 d8 b3 bc 9c 79 b6 3d
       0.047465123 -0.030558579 -0.02195363 0.08909914
000020 85 80 e2 3d 28 0b fc 3d 59 71 86 3d f3 a7 4d 3c
       0.110596694 0.123068154 0.06564588 0.012552249
000030 65 bf 6b bd 4f ae 0b 3e 6a f9 a6 3c 37 0d ba bd
       -0.057555575 0.13640712 0.020382602 -0.09084552
000040 e7 ab 3b bd c8 37 05 be b4 e4 c9 3d d8 42 3f bc
       -0.045818236 -0.1300956 0.09858075 -0.011673652
000050 ee be 90 3d 66 e7 a5 bc 5c 46 ab bd 94 12 99 3d
       0.07067667 -0.020251941 -0.08363029 0.074742466
000060 28 32 25 3d 69 cd 91 bd 4c 5d 29 3c eb 28 1c bd
       0.040331036 -0.07119257 0.010337185 -0.03812496
000070 d7 f1 33 3c c6 9f 9e bd bd 8d e2 bd 82 ed 1f 3d
       0.010982952 -0.07745318 -0.11062191 0.039044864
000080 d4 08 79 bc ae 6c 61 bd 30 e3 97 bd 02 90 0f bd
       -0.015199859 -0.055035286 -0.074163795 -0.035049446
000090 b2 51 7d 3d c0 0c 11 3d 10 04 c4 bc 3e 8f a7 bd
       0.06184549 0.03541255 -0.023927718 -0.08181618

fc3.weight f4 [2, 40]
000000 19 f9 13 be bf db fb bc 01 cf c5 bd b2 72 59 3d
       -0.14450492 -0.030744432 -0.096586235 0.053087898
000010 39 11 8b 3a 8e d0 e9 3d b9 ea 00 3d 3c f9 43 3c
       0.0010609991 0.11416732 0.03147385 0.011961278
000020 df 41 e4 3d 2c be 06 be e5 95 eb 3d 0c e4 a1 bd
       0.111453764 -0.13158482 0.115031995 -0.079048246
000030 40 12 23 bd 59 01 70 3d 89 e4 eb bd 32 f3 19 3e
       -0.039812326 0.058595035 -0.11518199 0.15034178
000040 7d e0 f7 bd 3d 08 ea bc 7a 2a 5d bd 2d 1f 85 bd
       -0.121033646 -0.028568381 -0.053995587 -0.06500087
000050 f6 ca a8 bd 03 76 16 3d df d4 a3 bd 43 1a e7 3c
       -0.08241837 0.03673364 -0.07999586 0.028210765
000060 a7 50 77 3d 25 88 12 bd 93 7b 90 bd 5b 39 4c bd
       0.06037965 -0.03577437 -0.0705482 -0.049859386
000070 6f 4a 18 be 4b dd 2c 3d 16 13 ba 3d e0 df ec 3d
       -0.14872144 0.04220323 0.090856716 0.11566138
000080 95 eb d7 3d d8 82 05 3d 0e f1 a9 3d 91 ed 21 3e
       0.105429806 0.032595485 0.08297931 0.1581328
000090 87 e0 06 be 44 26 a6 3d bf 3d 84 3d 50 e5 78 bd
       -0.13171588 0.08112767 0.0645709 -0.060765564
0000a0 bc ec 50 3c 51 0b 34 be 09 a2 96 bd 10 40 d1 3d
       0.012751754 -0.17582442 -0.073551245 0.10217297
0000b0 ff ff 7c 3d 0d 29 0e 3e 02 0f 98 bc a4 20 7c 3d
       0.061767574 0.13882847 -0.018561844 0.061554566
0000c0 a1 3b cf 3d b5 81 f1 bc fb 22 04 bd 4a 6f 1f 3e
       0.10118795 -0.029480794 -0.032259922 0.15569797
0000d0 7f ce 06 be 22 02 1a 3e 44 31 20 be 18 af e0 bd
       -0.1316471 0.15039876 -0.15643793 -0.109708965
0000e0 34 f1 8a bc 59 aa 13 3e 75 4a e7 bd a3 74 0a be
       -0.016960718 0.14420451 -0.112934984 -0.13521056
0000f0 08 57 28 3d 02 6a f0 3d 86 87 95 bd 0a 82 5b 3c
       0.041098624 0.117389694 -0.0730124 0.013397703
000100 25 8b 18 bd 85 4f 2c 3d 70 7e 85 3d 4e fb 1c be
       -0.037242074 0.042068023 0.06518257 -0.1533024
000110 ae 7b 09 be 5f 2d a3 bd ec 71 90 bb 26 c2 ac bb
       -0.13426086 -0.07967638 -0.004408112 -0.0052721677
000120 bb c0 ad 3d 7c e1 91 3d f0 6f 78 bc df f6 4c be
       0.08484026 0.07123086 -0.015163407 -0.20016049
000130 7c 38 c1 bd 62 db dc 3d 2b a8 2a bd e1 2d 93 3d
       -0.09434602 0.107840315 -0.041664284 0.07186485

fc3.bias f4 [2]
000000 ad 7d 65 be a0 09 48 3e
       -0.22411223 0.19534922
